models/CA_CBAM.pth (torch, 939833 bytes, 27 tensors)

backbone.0.weight f4 [32, 3, 3, 3]
0.22433007 -0.034657866 -0.018271776 0.12331812 -0.10647038 -0.20180191 -0.16782965 -0.04305411
0.0126263015 0.24151821 -0.09868621 0.10077753 0.12216276 0.033129584 0.104498014 0.20729703
-0.12590493 -0.05018199 -0.004838022 0.03329836 -0.19696875 -0.067719795 -0.1342251 0.07311272
-0.030232253 -0.17907575 0.11886701 -0.035930928 0.105344415 -0.085055105 0.0718116 0.039259948
-0.11541857 -0.08011085 -0.16642807 0.10210194 0.15741077 0.042524166 0.075064786 0.107111864
-0.02164028 0.10132439 0.032000083 -0.029891215 0.06804915 -0.0723548 0.115308635 -0.21859331
0.014085237 0.057530258 -0.00096087425 -0.1493871 -0.15492292 0.06927724 -0.003995512 0.14744282
0.1193297 -0.02381099 -0.109697886 -0.13312995 -0.0018929696 0.055105463 0.06288839 -0.06104088
0.00012447071 -0.040302604 0.172641 -0.14851555 -0.06555448 0.021817375 -0.004359476 -0.17435645
0.13625863 0.22690523 0.21554404 -0.079020225 -0.114304535 0.084985495 -0.09400946 -0.15862429
-0.08619751 0.16217723 0.12784228 -0.09988857 -0.12347199 -0.075923145 0.05528952 -0.07044796
0.031026904 0.03160201 0.16548261 -0.058653045 0.14344211 -0.10852848 -0.17508662 0.048356872
-0.14695571 0.10519065 -0.021948244 0.1376119 0.20616555 0.12460011 -0.032911513 0.011428576
-0.2023412 -0.13724592 -0.112272024 -0.050080385 -0.02967322 0.12411311 -0.05923224 -0.10826028
0.11871272 0.018126795 0.17037089 0.09374761 0.19199495 -0.092544965 0.098438844 0.15480098
-0.18130462 0.16677906 0.16905485 -0.02725714 0.105004855 -0.0910116 0.064106055 0.10238001
0.032613296 0.12978971 0.19747819 -0.13126542 0.035974987 -0.06824361 -0.05175971 -0.09243833
-0.15760984 -0.13777222 -0.09725473 0.09115031 0.16193299 -0.13743584 0.07654863 0.19534834
0.011356531 0.13035956 0.19743079 -0.1769256 0.082043335 0.07061159 0.09254508 -0.15828483
0.12971075 0.067243434 0.11944506 -0.20635726 -0.13786943 -0.21913736 0.1470107 -0.17967658
0.109599665 -0.13496593 0.19375646 -0.16447848 -0.08057099 0.08930775 -0.13451438 -0.058248352
0.105055936 0.1384303 -0.005954213 0.034419604 -0.11260188 -0.068684526 -0.0861988 -0.014393633
0.065392435 0.030540401 -0.06606855 -0.2079601 0.12537761 0.1269621 0.18708614 -0.084458865
0.14933884 0.05923376 -0.052376084 0.020108473 -0.03731158 -0.03386436 -0.111579925 0.2060736
-0.040075704 0.080032945 -0.04214583 0.15530555 0.116467014 0.002910562 -0.00038725333 0.12761801
0.003004868 -0.18261306 -0.030087952 -0.21833937 -0.18404423 -0.191934 -0.10599014 0.105737895
-0.051965274 0.057509962 0.027160762 -0.09725755 0.052859213 0.03829013 0.17775778 -0.100006334
0.09756231 -0.16323417 -0.06855877 -0.12883887 0.1176709 0.021181807 -0.03659835 -0.19260722
0.056544654 0.0651451 -0.028572146 0.1269 -0.22723751 -0.16681151 0.22602756 -0.267199
-0.06436051 0.14617178 -0.08244104 -0.10145687 0.16960321 -0.1581246 -0.17531513 -0.059874944
0.0056373975 -0.13915037 0.07837083 -0.06889504 -0.034452595 0.21965998 -0.00074331136 -0.04037182
0.11792752 0.09318815 -0.05064381 0.035605527 -0.013457933 -0.012219567 -0.16819881 0.13620882
00000000: c8b6 653e 68f5 0dbd b1ae 95bc 368e fc3d
00000010: 250d dabd 29a5 4ebe 89db 2bbe 8259 30bd
00000020: 8cde 4e3c 8d50 773e ff1b cabd 7364 ce3d
00000030: 7830 fa3d e3b2 073d 0e03 d63d ac45 543e
00000040: 39ed 00be a18b 4dbd 4588 9ebb dc63 083d
00000050: 2db2 49be adb0 8abd 4e72 09be 1fbc 953d
00000060: a1a9 f7bc a25f 37be 8c70 f33d 4f2c 13bd
00000070: d0be d73d 5f31 aebd f611 933d 0acf 203d
00000080: 9260 ecbd 2811 a4bd 1f6c 2abe d21a d13d
00000090: 4a30 213e d22d 2e3d 91bb 993d 775d db3d
000000a0: f546 b1bc 2983 cf3d 8512 033d 6cde f4bc
000000b0: 5a5d 8b3d c12e 94bd ef26 ec3d edd6 5fbe
000000c0: c4c5 663c d9a4 6b3d 2ee3 7bba eff8 18be
000000d0: 1da4 1ebe 3ae1 8d3d c9ec 82bb 40fb 163e
000000e0: 2163 f43d 440f c3bc 49a9 e0bd 3853 08be
000000f0: 851d f8ba 44b6 613d a1cb 803d 0006 7abd
00000100: 5a84 0239 5814 25bd cdc8 303e 7614 18be
00000110: 6d41 86bd 5aba b23c efd9 8ebb 7f8a 32be
00000120: 6287 0b3e d859 683e 94b7 5c3e 5bd5 a1bd
00000130: 7f18 eabd e00c ae3d 0888 c0bd 686e 22be
00000140: 5288 b0bd ca11 263e 16e9 023e 6192 ccbd
00000150: e2de fcbd 987d 9bbd 4477 623d 0547 90bd
00000160: 222c fe3c 1c71 013d 4674 293e 2d3e 70bd
00000170: 7de2 123e 2e44 debd e849 33be db11 463d
00000180: 8f7b 16be 326e d73d cecc b3bc 22ea 0c3e
00000190: 101d 533e 582e ff3d 39ce 06bd ec3e 3b3c
000001a0: 8832 4fbe 328a 0cbe e0ee e5bd 1721 4dbd
000001b0: 4115 f3bc 042f fe3d 819d 72bd 91b7 ddbd
000001c0: a81f f33d a57e 943c b575 2e3e bffe bf3d
000001d0: 539a 443e 3788 bdbd 4e9a c93d 2684 1e3e
000001e0: eba7 39be 21c8 2a3e b71c 2d3e 5e4a dfbc
000001f0: c90c d73d 4a64 babd 094a 833d 9cac d13d
00000200: 8595 053d 98e7 043e b937 4a3e 716a 06be
00000210: 825a 133d 4ec3 8bbd fd01 54bd 4f50 bdbd
00000220: 7964 21be 2914 0dbe 7d2d c7bd 04ad ba3d
00000230: c3d1 253e fbbb 0cbe 87c5 9c3d 6509 483e
00000240: be10 3a3c fa7c 053e 4c2b 4a3e fc2b 35be
00000250: 5606 a83d cf9c 903d 4688 bd3d 6b15 22be
00000260: e5d2 043e edb6 893d 9d9f f43d 514f 53be
00000270: a52d 0dbe 8b65 60be f989 163e 23fd 37be
00000280: ca75 e03d 8234 0abe 1868 463e 0c6d 28be
00000290: 6702 a5bd fbe6 b63d 23be 09be d395 6ebd
000002a0: 9127 d73d acc0 0d3e 8f1b c3bb 92fb 0c3d
000002b0: d19b e6bd 79aa 8cbd ff88 b0bd 46d3 6bbc
000002c0: 78ec 853d dd2f fa3c f34e 87bd 7ef3 54be
000002d0: fd62 003e 5a02 023e 8293 3f3e c5f8 acbd
000002e0: 48ec 183e 199f 723d 4e88 56bd 86ba a43c
000002f0: 07d4 18bd 5bb5 0abd 0484 e4bd f504 533e
00000300: 6c26 24bd 50e8 a33d 1ba1 2cbd 6b08 1f3e
00000310: 4286 ee3d 21bf 3e3b 4308 cbb9 4cae 023e
00000320: 52ed 443b ebfe 3abe 027b f6bc 5b94 5fbe
00000330: 1776 3cbe 598a 44be 5c11 d9bd 1c8d d83d
00000340: 8ad9 54bd 918f 6b3d 3f80 de3c f72e c7bd
00000350: e782 583d 1dd6 1c3d 2306 363e 1fd0 ccbd
00000360: c0ce c73d dc26 27be 8a68 8cbd 56ee 03be
00000370: 71fd f03d 7885 ad3c 27e8 15bd d43a 45be
00000380: 5e9b 673d cb6a 853d 2210 eabc 13f2 013e
00000390: f3b0 68be a3d0 2abe c573 673e 4fce 88be
000003a0: 71cf 83bd 0eae 153e d9d6 a8bd 9fc8 cfbd
000003b0: 77ac 2d3e 6aeb 21be cf85 33be 6e3f 75bd
000003c0: ebb9 b83b 6f7d 0ebe e380 a03d d818 8dbd
000003d0: 2a1e 0dbd 8cee 603e c8da 42ba ec5c 25bd
000003e0: fc83 f13d 6ed9 be3d e26f 4fbd 1ad7 113d
000003f0: aa7e 5cbc 9434 48bc 4f3c 2cbe 537a 0b3e

backbone.0.bias f4 [32]
-0.00038039696 0.0007569766 -0.0008139827 -0.00070927694 -7.197228e-05 -0.00040711186 -0.00047853618 0.00060723367
0.00022825312 0.0017076228 2.0846515e-05 -0.00020730316 -0.0006126128 -8.149663e-06 0.0002383827 6.007297e-05
-0.0002679233 -0.0027305894 0.0013279264 0.00050311896 -3.3130535e-05 3.120073e-05 5.006134e-06 4.7904483e-05
-4.2679134e-05 -0.0009339168 0.00020109274 0.00038378045 -0.0021915145 -0.00064086984 -0.0004702226 -0.00015792527
00000000: 0470 c7b9 d76f 463a 7461 55ba c5ee 39ba
00000010: d3ef 96b8 a171 d5b9 0ae4 fab9 c32e 1f3a
00000020: 3b57 6f39 50d2 df3a 8ddf ae37 855f 59b9
00000030: c097 20ba 89ba 08b7 5ef6 7939 dcf6 7b38
00000040: 0e78 8cb9 b0f3 32bb d10d ae3a bee3 033a
00000050: a4f5 0ab8 87dd 0238 5dfa a736 0ced 4838
00000060: 5f02 33b8 18d2 74ba 6cdc 5239 2436 c939
00000070: 839f 0fbb 0c00 28ba 3688 f6b9 be98 25b9

backbone.1.weight f4 [32]
0.96892184 1.0551933 1.0970627 0.9875939 0.8588938 1.0181831 0.99219775 0.99675167
0.8952001 0.9824575 0.9982761 0.95412695 1.0270869 0.897809 0.9826239 0.9289322
0.94926643 1.0630174 0.9338643 1.075092 0.9652806 0.9714091 0.911995 0.93522257
0.983204 1.0365305 0.98566765 0.98418564 1.0745523 1.0296274 0.89594615 1.0200832
00000000: 430b 783f 9310 873f 8d6c 8c3f f4d2 7c3f
00000010: 77e0 5b3f d353 823f ac00 7e3f 1e2b 7f3f
00000020: d52b 653f 5682 7b3f 068f 7f3f aa41 743f
00000030: 9577 833f d0d6 653f 3d8d 7b3f 80ce 6d3f
00000040: 2003 733f f410 883f bb11 6f3f 9d9c 893f
00000050: a11c 773f 44ae 783f 8178 693f bf6a 6f3f
00000060: 42b3 7b3f 08ad 843f b754 7c3f 97f3 7b3f
00000070: ee8a 893f d5ca 833f ba5c 653f 1692 823f

backbone.1.bias f4 [32]
-0.051901974 0.0061998293 -0.06523871 -0.14031135 -0.14349426 -0.08766936 -0.019241724 -0.1241232
-0.12914184 -0.14204368 -0.0033644757 -0.11949166 -0.04490319 -0.14718023 -0.11254933 -0.041585594
-0.24069874 -0.099884294 -0.16449475 -0.04556952 -0.10683184 -0.123951904 -0.19350375 -0.09270399
-0.17417517 -0.15240851 -0.05981568 -0.121598125 -0.09260792 -0.13481909 -0.19926277 0.07655771
00000000: 2a97 54bd f027 cb3b df9b 85bd c7ad 0fbe
00000010: 29f0 12be fe8b b3bd d2a0 9dbc 4e34 febd
00000020: c23d 04be e673 11be 897e 5cbb 0bb8 f4bd
00000030: 68ec 37bd 6ab6 16be 4380 e6bd a855 2abd
00000040: bb79 76be 2390 ccbd 5071 28be 1ba7 3abd
00000050: a7ca dabd 7fda fdbd d925 46be 97db bdbd
00000060: fa5a 32be fa10 1cbe 4901 75bd 7008 f9bd
00000070: 39a9 bdbd 040e 0abe 8a0b 4cbe 4aca 9c3d

backbone.1.running_mean f4 [32]
0.0036140704 -0.0027486791 0.019982029 0.021245725 -0.08796835 0.049748443 -0.045583986 0.09435646
0.13869509 0.087213665 0.17705072 0.064001866 0.0673604 0.15567695 -0.14423326 0.31864554
-0.16392769 0.0056704753 0.002136126 0.002368199 -0.035717413 -0.019113408 -0.20406227 -0.1389126
-0.18710579 0.020293454 -0.10784039 0.2708145 -0.021363404 0.033775948 -0.051230267 0.0712064
00000000: 0ada 6c3b 2f23 34bb 5ab1 a33c 840b ae3c
00000010: c028 b4bd 06c5 4b3d 46b6 3abd f63d c13d
00000020: 1606 0e3e 149d b23d c94c 353e 6913 833d
00000030: 40f4 893d c769 1f3e e2b1 13be 8225 a33e
00000040: a9dc 27be 65cf b93b 3ffe 0b3b c933 1b3b
00000050: 6c4c 12bd b993 9cbc b3f5 50be 1b3f 0ebe
00000060: a998 3fbe 753e a63c 6cdb dcbd 33a8 8a3e
00000070: 4e02 afbc a658 0a3d d4d6 51bd a9d4 913d

backbone.1.running_var f4 [32]
0.0088333255 0.0033608137 0.007907383 0.009972239 0.206779 0.013698609 0.005598799 0.01580486
0.16477449 0.0063801855 0.023097046 0.060799766 0.014688911 0.40694183 0.018493 0.29443127
0.06440185 0.008236678 0.0025701532 0.006144627 0.01428497 0.014764872 0.2111849 0.10597206
0.031402867 0.012455962 0.014160054 0.060963396 0.009420243 0.007848378 0.022486947 0.016388169
00000000: a7b9 103c 1941 5c3b f88d 013c 9a62 233c
00000010: e0bd 533e 2170 603c 2176 b73b 3279 813c
00000020: a5ba 283e e010 d13b 0436 bd3c 2d09 793d
00000030: c2a9 703c ae5a d03e a27e 973c b2bf 963e
00000040: 1ee5 833d 22f3 063c 0470 283b de58 c93b
00000050: 820b 6a3c 5de8 713c db40 583e e107 d93d
00000060: 4ba0 003d 1714 4c3c 92ff 673c c1b4 793d
00000070: 5d57 1a3c 7c96 003c 8c36 b83c 7b40 863c

backbone.5.weight f4 [64, 32, 3, 3]
0.076544605 -0.017055554 -0.009787603 -0.036171388 0.017904565 0.013258109 -0.024980342 0.04819982
-0.023757564 -0.0033300866 0.03010427 0.03348531 0.0972493 -0.047225703 -0.04554628 0.058108855
-0.059117034 -0.08449771 -0.027770774 -0.04170645 0.025160722 -0.02766448 0.004137311 -0.08884272
-0.0035258238 -0.044619627 -0.04023619 -0.06408511 -0.03561377 -0.011319729 -0.031740367 0.035914794
-0.09580557 0.0028657778 -0.016540656 -0.027330762 0.027448067 0.033120655 -0.014280739 -0.03943887
-0.03936684 -0.026162418 0.055431914 0.0129044745 -0.03575292 0.006166166 0.047536626 0.053090226
-0.02211726 0.0072903084 0.04646211 0.01121798 -0.041283917 -0.040415924 -0.009879724 -0.090485595
-0.10506154 -0.009665389 -0.110737756 -0.12521133 -0.00057194894 -0.047543723 -0.1564881 -0.03787052
0.001779415 -0.018497232 -0.13107616 -0.064657524 -0.038272273 -0.11147419 -0.12614271 -0.04189802
0.010800235 0.018240005 -0.00405985 -0.038090203 -0.019111497 0.056082662 -0.09072309 -0.035670996
-0.0005220507 -0.033034597 0.022926047 0.017028842 -0.061061542 0.04251666 0.014259015 -0.007225391
0.018203197 -0.0001032781 -0.03667748 0.018203504 0.022500113 -0.036235534 0.006864459 -0.0046676686
-0.070148975 -0.06927508 -0.008832523 0.061543804 -0.004801974 0.015093115 -0.044424962 -0.07635173
0.057853866 0.044179466 -0.02189558 0.04032041 -0.0783537 -0.053619117 -0.063279584 -0.06484726
-0.010065138 -0.045712642 -0.080364294 -0.051694307 -0.04869552 0.015423511 0.048442964 -0.021101343
-0.06399499 -0.017059453 0.018945841 0.0045341244 0.00492794 0.032155048 -0.11022324 -0.059179783
-0.09548284 -0.083232775 -0.07109081 -0.021437058 0.015439989 -0.008669099 0.023446009 -0.044202257
0.06439834 0.054566167 -0.052296963 0.0010039725 0.022469342 -0.11107517 -0.05139922 -0.02973479
-0.01802598 -0.04286977 -0.00524497 -0.036556732 -0.06157209 -0.037649628 0.034273785 -0.09198075
-0.073185906 -0.0492938 -0.038053602 -0.034593996 -0.04624807 -0.059935536 -0.026822792 -0.059729367
-0.02350367 0.019642064 -0.0046804403 -0.08522738 -0.023034163 0.047118485 -0.0035933657 0.0038549602
0.10959066 0.13535988 0.09253235 -0.024870403 0.0634462 -0.010177267 0.0058306316 0.029915607
-0.026496615 0.130943 0.056505427 0.12999724 0.01856389 -0.036521968 -0.016724152 0.011881362
-0.032071553 -0.01481766 0.009667106 -0.036549866 0.00756367 -0.0858018 0.022233468 0.017882714
-0.09160704 -0.0049842447 0.0032387183 -0.050060987 0.04768845 0.052116744 0.05402675 -0.048453856
-0.004489278 0.0109656695 -0.010193577 -0.028561853 0.008756533 0.030343888 0.012594358 0.04262536
0.0046378807 0.02207942 -0.01863269 -0.038029384 -0.029021675 0.07398454 -0.006620337 -0.050985895
-0.09005042 -0.12123604 -0.0879414 -0.10115258 -0.0726121 -0.06020879 0.0015324336 0.01762847
0.049134746 -0.005205463 -0.09592624 -0.06584101 0.027780183 -0.02211785 -0.026081728 0.12785794
0.082315356 -0.02514102 -0.10396646 -0.062711716 -0.120097235 -0.06736342 -0.11006123 -0.17605704
0.004171033 -0.035063274 -0.038823646 0.021053627 0.012451761 0.0007658397 -0.03676811 0.014119406
-0.02025095 -0.0062791016 0.0017611692 0.028694391 -0.0017700022 -0.08425457 -0.13769415 0.05466306
00000000: 6bc3 9c3d 17b8 8bbc 2f5c 20bc 7328 14bd
00000010: 98ac 923c 8a38 593c 93a3 ccbc 2d6d 453d
00000020: 399f c2bc 953d 5abb 3b9d f63c e427 093d
00000030: a42a c73d bd6f 41bd bc8e 3abd 8d03 6e3d
00000040: b424 72bd 230d adbd 897f e3bc 62d4 2abd
00000050: dc1d ce3c 9fa0 e2bc 4892 873b 2cf3 b5bd
00000060: 8211 67bb 12c3 36bd b4ce 24bd 0e3f 83bd
00000070: bfdf 11bd 6276 39bc 3002 02bd 641b 133d
00000080: b635 c4bd c6cf 3b3b 4580 87bc c3e4 dfbc
00000090: c5da e03c 86a9 073d c3f9 69bc a78a 21bd
000000a0: 203f 21bd 9152 d6bc 930c 633d 4a6d 533c
000000b0: a771 12bd 8d0d ca3b c4b5 423d 2375 593d
000000c0: 422f b5bc 8ae3 ee3b 0e4f 3e3d 9ecb 373c
000000d0: 5319 29bd 2b8b 25bd 91de 21bc 8350 b9bd
000000e0: 812a d7bd 945b 1ebc 7aca e2bd 6637 00be
000000f0: d8ee 15ba 35bd 42bd 6b3e 20be 1e1e 1bbd
00000100: 423b e93a 8287 97bc d438 06be 2a6b 84bd
00000110: 63c3 1cbd 954c e4bd 8e2b 01be 429d 2bbd
00000120: 78f3 303c 106c 953c 7d08 85bb 7904 1cbd
00000130: b78f 9cbc efb6 653d 07cd b9bd c01b 12bd
00000140: 3bda 08ba 494f 07bd 68cf bb3c 1280 8b3c
00000150: ab1b 7abd f325 2e3d a59e 693c f9c2 ecbb
00000160: df1e 953c 0297 d8b8 203b 16bd 841f 953c
00000170: 2852 b83c b66b 14bd 41ef e03b 3ef3 98bb
00000180: 44aa 8fbd 18e0 8dbd 49b6 10bc 5b15 7c3d
00000190: e159 9dbb 1d49 773c f3f6 35bd 4c5e 9cbd
000001a0: 2df8 6c3d 87f5 343d 5c5e b3bc 0427 253d
000001b0: e877 a0bd b89f 5bbd ba98 81bd a4ce 84bd
000001c0: 40e8 24bc 2e3d 3bbd 0996 a4bd 69bd 53bd
000001d0: f474 47bd e5b2 7c3c 216c 463d b9dc acbc
000001e0: ce0f 83bd 44c0 8bbc 4f34 9b3c fe92 943b
000001f0: 8f7a a13b 03b5 033d b9bc e1bd 8066 72bd
00000200: 828c c3bd f275 aabd 0f98 91bd c59c afbc
00000210: 02f8 7c3c d608 0ebc d811 c03c 6d0d 35bd
00000220: 47e3 833d c680 5f3d 5735 56bd ba97 833a
00000230: a011 b83c 617b e3bd fd87 52bd 6096 f3bc
00000240: 38ab 93bc 3698 2fbd ffdd abbb 83bc 15bd
00000250: 0433 7cbd 7f36 1abd ab62 0c3d 6760 bcbd
00000260: 7ee2 95bd 4ce8 49bd 18de 1bbd 6fb2 0dbd
00000270: 9e6e 3dbd f77e 75bd 79bb dbbc c8a6 74bd
00000280: c58a c0bc 65e8 a03c 615e 99bb b18b aebd
00000290: 24b2 bcbc 50ff 403d ac7e 6bbb 80a3 7c3b
000002a0: 1171 e03d c89b 0a3e 9a81 bd3d 04bd cbbc
000002b0: 15f0 813d 8dbe 26bc e20e bf3b 9311 f53c
000002c0: 6e0f d9bc ec15 063e 3c72 673d ff1d 053e
000002d0: 4d13 983c 0f98 15bd 1701 89bc 0baa 423c
000002e0: 765d 03bd c5c5 72bc c862 1e3c 50b5 15bd
000002f0: aad8 f73b dbb8 afbd f622 b63c c57e 923c
00000300: 799c bbbd e052 a3bb ad40 543b c00c 4dbd
00000310: f754 433d 5e78 553d 274b 5d3d 8d77 46bd
00000320: cb1a 93bb 5aa9 333c f602 27bc 8cfa e9bc
00000330: 9077 0f3c bf93 f83c 9158 4e3c ee97 2e3d
00000340: 5df9 973b e6df b43c 95a3 98bc b3c4 1bbd
00000350: ddbe edbc 3585 973d 69ef d8bb 96d6 50bd
00000360: 5b6c b8bd 9a4a f8bd 9f1a b4bd 1529 cfbd
00000370: a7b5 94bd 7e9d 76bd f0db c83a 9569 903c
00000380: 8441 493d 9792 aabb fa74 c4bd a7d7 86bd
00000390: 4493 e33c 7e30 b5bc 59a9 d5bc 31ed 023e
000003a0: f494 a83d 8af4 cdbc 5eec d4bd 006f 80bd
000003b0: 8af5 f5bd d5f5 89bd c867 e1bd 4c48 34be
000003c0: 29ad 883b 829e 0fbd 8b05 1fbd a878 ac3c
000003d0: 7902 4c3c a2c2 483a 289a 16bd 1555 673c
000003e0: 52e5 a5bc ecc0 cdbb 08d7 e63a 8010 eb3c
000003f0: 6bff e7ba a98d acbd b2ff 0cbe 5fe6 5f3d

backbone.5.bias f4 [64]
5.3975764e-05 8.716966e-06 4.596578e-05 -0.00010449033 -0.00011431586 2.3483744e-05 2.5396615e-05 -3.4593122e-05
5.9823593e-05 -2.8640932e-05 0.00011707514 -2.0976391e-05 4.473815e-05 6.5566323e-06 -0.00016019866 3.2333788e-05
4.2183252e-05 1.9315963e-05 3.675773e-05 -5.216e-06 -0.00012678979 -6.8373134e-05 -1.1449057e-05 4.659619e-05
-4.7148762e-05 4.7794565e-05 -0.00024225337 0.00023030501 -7.907193e-05 -1.4217646e-05 -1.5833548e-05 -3.896039e-06
5.2904325e-05 -8.363748e-05 3.7200934e-05 2.4694507e-05 -6.4828746e-05 -5.780643e-05 -4.3618045e-05 -1.5006908e-06
0.00012774265 0.00017776985 0.00013596198 2.4058256e-05 -2.4794703e-05 -2.4502633e-05 8.593601e-05 -2.1657281e-06
8.904569e-05 1.1398216e-05 -6.507716e-05 -1.0782476e-05 -2.9596096e-05 2.6582698e-05 8.444617e-05 5.3147665e-05
-4.407996e-05 1.4910494e-05 -1.4898692e-05 8.319547e-05 3.6746784e-05 1.0335816e-05 9.803606e-05 -5.7068122e-05
00000000: 0964 6238 153f 1237 61cb 4038 d221 dbb8
00000010: dcbc efb8 f5fe c437 d10a d537 1518 11b8
00000020: 18eb 7a38 ef41 f0b7 3d86 f538 75f6 afb7
00000030: 39a5 3b38 0b01 dc36 00fb 27b9 249e 0738
00000040: eced 3038 b708 a237 502c 1a38 1905 afb6
00000050: e0f2 04b9 8c63 8fb8 5315 40b7 4770 4338
00000060: 99c1 45b8 0677 4838 6505 7eb9 087e 7139
00000070: 6bd3 a5b8 5388 6eb7 49d2 84b7 b8ba 82b6
00000080: 96e5 5d38 8866 afb8 3308 1c38 0d27 cf37
00000090: abf4 87b8 2e75 72b8 85f2 36b8 586b c9b5
000000a0: a8f2 0539 bb67 3a39 0491 0e39 b6d0 c937
000000b0: 38fe cfb7 018b cdb7 8b38 b438 ed56 11b6
000000c0: 0abe ba38 f73a 3f37 097a 88b8 62e6 34b7
000000d0: 2245 f8b7 e9fd de37 b118 b138 dfea 5e38
000000e0: 7fe2 38b8 1628 7a37 65f5 79b7 3a79 ae38
000000f0: 8f20 1a38 fe67 2d37 b598 cd38 6e5c 6fb8

backbone.6.weight f4 [64]
1.0634301 1.031034 0.97707915 0.93753666 1.0859742 0.9761483 1.0037599 0.94564265
0.9601882 1.0083251 0.9826678 0.9871017 0.9897106 1.0027932 1.0520291 0.9320907
0.97551763 0.87847275 1.0261353 0.92961043 0.99901026 0.9633642 1.0175172 0.9693261
0.9788639 0.98715353 1.0891134 1.113267 1.0693417 0.9417501 1.0514114 1.0420535
0.9724736 1.0487481 0.95498085 0.9747891 0.95336455 0.93022394 0.93575543 1.015571
0.9922923 0.9730264 1.0179744 0.99700576 0.9482372 1.0077976 0.9709917 0.9595786
1.0382882 0.98114055 0.990628 0.98497295 1.0138518 0.9881395 1.0106254 0.9171639
0.9144104 0.903657 0.9663801 0.98363775 0.9237514 0.9695838 0.99741346 0.933745
00000000: 7a1e 883f ecf8 833f dc21 7a3f 6702 703f
00000010: 3401 8b3f dbe4 793f 347b 803f a315 723f
00000020: e5ce 753f cc10 813f 1e90 7b3f b2b2 7c3f
00000030: ad5d 7d3f 875b 803f e4a8 863f 7f9d 6e3f
00000040: 86bb 793f 97e3 603f 6758 833f f3fa 6d3f
00000050: 23bf 7f3f 099f 763f 013e 823f c125 783f
00000060: d396 7a3f 18b6 7c3f 1168 8b3f 887f 8e3f
00000070: 30e0 883f 8916 713f a694 863f 0262 853f
00000080: 08f4 783f 613d 863f a079 743f c78b 793f
00000090: b30f 743f 2823 6e3f ab8d 6f3f 3bfe 813f
000000a0: de06 7e3f 4218 793f fc4c 823f c53b 7f3f
000000b0: acbf 723f 83ff 803f e992 783f f1a6 753f
000000c0: a1e6 843f 072c 7b3f cc99 7d3f 3027 7c3f
000000d0: e5c5 813f b6f6 7c3f 2c5c 813f 41cb 6a3f
000000e0: cd16 6a3f 1156 673f b064 773f afcf 7b3f
000000f0: f97a 6c3f a536 783f 7d56 7f3f ea09 6f3f

backbone.6.bias f4 [64]
-0.14459561 -0.13804983 -0.1420981 -0.1166897 -0.21219598 -0.13386686 -0.16439141 -0.16360837
-0.18638854 -0.12895323 -0.18537217 -0.14875327 -0.118869185 -0.21118394 -0.29380634 -0.1367284
-0.16786587 -0.19458272 -0.10997434 -0.22520736 -0.20951487 -0.15294194 -0.102163486 -0.057992578
-0.102966286 -0.2086 -0.072638124 -0.046896536 -0.114318244 -0.22386241 -0.116919 -0.176678
-0.17142367 -0.14845368 -0.16585204 -0.16148438 -0.13862753 -0.1893697 -0.17227556 -0.11028677
-0.08981989 -0.19863987 -0.107582875 -0.141954 -0.17426631 -0.1796186 -0.167242 -0.2609939
-0.15528464 -0.1381514 -0.1754529 -0.14484975 -0.18675442 -0.2082712 -0.27892867 -0.16689351
-0.16994199 -0.12360355 -0.17825864 -0.25169975 -0.15274034 -0.24498546 -0.12717123 -0.18713826
00000000: df10 14be ef5c 0dbe 2a82 11be 02fb eebd
00000010: e749 59be 6514 09be 3956 28be f488 27be
00000020: a3dc 3ebe 510c 04be 34d2 3dbe c752 18be
00000030: b071 f3bd 9a40 58be c96d 96be 8802 0cbe
00000040: 08e5 2bbe b140 47be 3a3a e1bd c29c 66be
00000050: 118b 56be d09c 1cbe 173b d1bd a089 6dbd
00000060: fddf d2bd 3d9b 55be 4cc3 94bd 9516 40bd
00000070: af1f eabd 303c 65be 3b73 efbd 14eb 34be
00000080: b089 2fbe 3e04 18be 1ed5 29be 295c 25be
00000090: 60f4 0dbe 21ea 41be 0169 30be 08de e1bd
000000a0: 7ef3 b7bd 4068 4bbe 6954 dcbd 645c 11be
000000b0: de72 32be f0ed 37be 7d41 2bbe fea0 85be
000000c0: f002 1fbe 9077 0dbe eda9 33be 7e53 14be
000000d0: 8d3c 3fbe 0c45 55be bdcf 8ebe 22e6 2abe
000000e0: 4605 2ebe dc23 fdbd 6f89 36be cade 80be
000000f0: f767 1cbe 78dd 7abe 2d39 02be 2ca1 3fbe

backbone.6.running_mean f4 [64]
-1.590378 -2.3711362 -1.8185136 -1.6586533 -0.7646869 -2.6868496 -2.580512 -1.9672573
-0.43989 -3.6570535 -2.6075962 -2.0248938 -2.5021036 -3.145194 0.15647793 -1.8754464
-2.9509213 -0.012067227 1.4997926 -3.2679198 0.52911294 -1.4334884 2.6256096 -1.46697
-1.3032637 -0.9271528 -2.1160488 -1.9932063 -1.623271 1.5618284 -2.4478953 -1.9131665
-0.94443136 -1.2733569 -1.0998515 -0.874676 -2.7548692 1.723907 -0.8754238 -2.148661
-0.11683831 -0.39723364 -1.1352454 3.0032032 -2.1650121 -0.68754965 -2.3902245 -1.4146571
-1.8976027 -2.7775977 -3.2547977 -0.8210585 -3.423012 2.2757425 1.5171062 -2.3423078
-1.3182536 -2.0074983 -1.3084824 -0.9361399 0.15633926 -2.47295 -1.8659518 -0.7546586
00000000: 8291 cbbf b2c0 17c0 0ec5 e8bf c04e d4bf
00000010: 85c2 43bf 58f5 2bc0 1c27 25c0 16cf fbbf
00000020: 4339 e1be 2a0d 6ac0 dbe2 26c0 dc97 01c0
00000030: 7722 20c0 dc4a 49c0 c03b 203e a10e f0bf
00000040: e5db 3cc0 9eb5 45bc 34f9 bf3f 9925 51c0
00000050: f273 073f 8c7c b7bf fd09 2840 acc5 bbbf
00000060: 58d1 a6bf e359 6dbf 586d 07c0 6221 ffbf
00000070: 58c7 cfbf fee9 c73f 51aa 1cc0 a4e2 f4bf
00000080: 41c6 71bf 5cfd a2bf efc7 8cbf c4ea 5fbf
00000090: c74f 30c0 fca8 dc3f c61b 60bf a983 09c0
000000a0: ed48 efbd 3562 cbbe b94f 91bf 7b34 4040
000000b0: 8f8f 0ac0 4103 30bf 70f9 18c0 7c13 b5bf
000000c0: a5e4 f2bf 29c4 31c0 9b4e 50c0 e430 52bf
000000d0: a112 5bc0 c4a5 1140 8930 c23f 5fe8 15c0
000000e0: 89bc a8bf da7a 00c0 5a7c a7bf dda6 6fbf
000000f0: 6617 203e d044 1ec0 82d7 eebf 4e31 41bf

backbone.6.running_var f4 [64]
2.8585315 3.1258352 2.2494228 2.0221179 2.8623567 4.601844 4.164763 4.596539
1.638385 8.957422 3.8465147 3.7105525 4.296158 5.797678 1.4037004 3.7751853
5.20313 4.795371 2.778082 6.1974444 2.2355464 2.9433053 3.6351283 2.4301238
2.4795818 1.926446 4.830036 2.2801542 3.9092686 5.5373826 4.778942 3.8411314
2.270231 1.7785105 2.627424 2.0328012 3.9753044 3.7581956 2.15188 3.0892415
2.0331168 1.750272 2.4973445 4.419876 5.2730565 2.0636504 3.5400581 2.810026
3.6705027 5.407802 6.713243 2.2639508 7.1985183 5.043408 3.180392 4.919543
4.015253 3.5754738 2.3936658 2.071816 3.2728872 5.065187 2.5766146 2.3887753
00000000: 2ef2 3640 af0d 4840 8bf6 0f40 616a 0140
00000010: da30 3740 4e42 9340 bd45 8540 d916 9340
00000020: 9ab6 d13f 9a51 0f41 4c2d 7640 b179 6d40
00000030: 207a 8940 9486 b940 74ac b33f a39c 7140
00000040: 0a80 a640 ae73 9940 18cc 3140 7751 c640
00000050: 3113 0f40 1d5f 3c40 f1a5 6840 2687 1b40
00000060: 78b1 1e40 c895 f63f a88f 9a40 0cee 1140
00000070: 7531 7a40 3d32 b140 18ed 9840 19d5 7540
00000080: 774b 1140 3ba6 e33f b727 2840 6a19 0240
00000090: 636b 7e40 4786 7040 67b8 0940 22b6 4540
000000a0: 961e 0240 ea08 e03f 7ed4 1f40 a06f 8d40
000000b0: e1bc a840 d912 0440 5090 6240 77d7 3340
000000c0: 84e9 6a40 b70c ad40 e3d2 d640 92e4 1040
000000d0: 435a e640 9963 a140 8b8b 4b40 e56c 9d40
000000e0: f47c 8040 90d4 6440 d231 1940 a298 0440
000000f0: fc76 5140 0316 a240 41e7 2440 b2e1 1840

backbone.10.weight f4 [128, 64, 3, 3]
-0.04477005 -0.042204097 -0.10097825 -0.091155455 0.0033497694 -0.03612989 -0.10058273 -0.06258929
-0.08647513 -0.008683693 0.025300473 0.009983616 0.0055071916 0.043590553 0.040075954 -0.010038949
0.047313787 -0.03914451 -0.02663621 0.005485381 0.05334455 -0.012808522 -0.04330108 0.03600163
-0.031772036 0.0229483 -0.0021303627 -0.027287975 0.007834718 0.010281184 -0.011575054 -0.01564102
0.046327 -0.012381008 0.034125566 -0.022689538 -0.07794388 -0.09015185 -0.028888969 -0.047885876
-0.08313372 -0.083191365 -0.05298442 -0.0904873 -0.062297005 0.043359138 0.014375954 0.0028244283
-0.0152208945 -0.027202047 0.06899406 -0.013297384 0.0030258351 0.042744488 -0.060085066 -0.03793154
-0.040004857 -0.038584396 0.009440568 -0.0036356184 -0.011512473 0.02968852 0.0016440094 -0.07504975
-0.003750159 0.0009434376 -0.013826833 -0.012782948 -0.08593608 -0.03831433 0.0041839574 0.006749881
0.028135931 0.052377105 -0.060964316 0.016368255 -0.019890582 -0.027271189 0.03146029 -0.038470946
-0.0456181 -0.030515904 -0.023436591 0.002670481 0.046961274 0.013849165 -0.05270278 0.023986103
0.069429025 0.01590974 -0.0363227 -0.038832456 0.042377245 0.039068718 -0.011303342 0.01031057
0.034714933 0.043343034 0.0460062 -0.014277836 -0.021507535 -0.050570626 -0.043190572 -0.02918739
-0.07440809 -0.06638869 -0.0019404358 -0.0077775726 -0.104615144 -0.017778544 -0.08595041 -0.05254571
-0.038470443 -0.03572691 -0.059362207 0.02691561 0.022963572 -0.07012717 -0.06824937 -0.07005441
0.019662293 -0.008928548 0.02795752 0.009964413 0.033826474 0.019134747 -0.06711753 -0.036666714
-0.110388935 -0.048720486 -0.04400577 0.011689069 -0.09080697 -0.031838648 -0.092932604 0.031028109
0.014758514 0.02735378 0.04407125 0.04503934 -0.017265 -0.009148809 0.015070102 -0.01010671
-0.04777717 0.038847793 0.03350564 -0.0015325447 0.010348952 0.036797453 0.012155572 0.025433727
0.036825534 0.07883715 0.015617309 -0.04177081 0.027427299 0.034930855 -0.024116928 -0.0024630986
0.014837649 0.002206503 0.01235518 -0.04774262 -0.06380976 -0.014867195 -0.020726586 0.030668858
0.017571446 0.026176408 0.0013982792 -0.03330511 0.061724722 0.00485176 0.024941487 0.0066141775
0.0663723 0.0909744 0.048113674 0.026070517 0.02629922 -0.03879729 0.033028893 -0.0022034731
0.03172794 0.045811158 -0.011377308 -0.06417483 0.044024926 -0.030627012 -0.03465032 0.054082915
0.0473927 0.0063977554 0.019562595 0.04209439 -0.008755957 0.05296975 -0.012504679 -0.044034712
0.06250889 -0.0011595841 -0.04266186 -0.043382782 -0.013356965 -0.06488052 0.0037750036 0.056608718
-0.031492125 0.031572163 -0.067235865 0.0602902 0.01183056 0.06423955 -0.026246678 0.058915976
0.07805706 0.01108668 0.06461231 -0.046337023 0.02434859 0.009635711 -0.04245986 0.03169527
0.032308705 0.015374895 -0.012699424 -0.035777785 -0.025013847 0.00965815 0.030156195 -0.07585379
0.001458462 0.04294702 0.020998616 0.02654158 0.062553674 -0.033121154 -0.030114707 -0.001004115
-0.037018463 -0.045265198 0.03204868 -0.030226985 -0.16122882 -0.11374909 -0.11602883 -0.011204043
0.0018475108 -0.040510762 -0.039816782 -0.0118684275 -0.053500146 -0.04464873 -0.054516617 -0.08069609
00000000: cd60 37bd 34de 2cbd afcd cebd b6af babd
00000010: ce87 5b3b effc 13bd 51fe cdbd d02e 80bd
00000020: df19 b1bd 0c46 0ebc f042 cf3c 5292 233c
00000030: ac75 b43b 028c 323d af26 243d 677a 24bc
00000040: 1acc 413d fe55 20bd 2e34 dabc b6be b33b
00000050: d17f 5a3d d6da 51bc 795c 31bd 7276 133d
00000060: 6523 02bd 13fe bb3c 8e9d 0bbb 088b dfbc
00000070: 305d 003c 6972 283c 4ca5 3dbc 9921 80bc
00000080: 61c1 3d3d b6d9 4abc 40c7 0b3d 69df b9bc
00000090: 0aa1 9fbd 88a1 b8bd 8fa8 ecbc fb23 44bd
000000a0: 0342 aabd 3c60 aabd 3106 59bd 6851 b9bd
000000b0: 252b 7fbd 5a99 313d 1f89 6b3c 0b1a 393b
000000c0: 0f61 79bc d4d6 debc c24c 8d3d 45dd 59bc
000000d0: 174d 463b d814 2f3d c21b 76bd 1a5e 1bbd
000000e0: 22dc 23bd ac0a 1ebd 9dac 1a3c 8e43 6ebb
000000f0: d09e 3cbc 5735 f33c cd7b d73a afb3 99bd
00000100: 3ac5 75bb 0751 773a f189 62bc 926f 51bc
00000110: 41ff afbd 7def 1cbd 9419 893b 1b2e dd3b
00000120: 537d e63c 6089 563d b8b5 79bd b816 863c
00000130: 93f1 a2bc d467 dfbc 81dc 003d b693 1dbd
00000140: 0bda 3abd 7dfc f9bc 18fe bfbc 3d03 2f3b
00000150: 775a 403d 9ce7 623c dfde 57bd 817e c43c
00000160: ce30 8e3d 2555 823c 1dc7 14bd c80e 1fbd
00000170: c393 2d3d 8506 203d a731 39bc aaed 283c
00000180: 3f31 0e3d 7788 313d ff70 3c3d 96ed 69bc
00000190: 9230 b0bc 2523 4fbd 99e8 30bd 651a efbc
000001a0: 4563 98bd cbf6 87bd 3956 feba 02db febb
000001b0: 7740 d6bd 4fa4 91bc c506 b0bd 2c3a 57bd
000001c0: 2f93 1dbd 6156 12bd c925 73bd 207e dc3c
000001d0: 1a1e bc3c d59e 8fbd 53c6 8bbd b078 8fbd
000001e0: d112 a13c 0b49 12bc 2b07 e53c c741 233c
000001f0: a18d 0a3d 79c0 9c3c ea74 89bd d62f 16bd
00000200: 9813 e2bd 228f 47bd 653f 34bd 8283 3f3c
00000210: 01f9 b9bd 3e69 02bd 7353 bebd a92e fe3c
00000220: b2cd 713c 0915 e03c 0e84 343d 2c7b 383d
00000230: 546f 8dbc e3e4 15bc 97e8 763c 9d96 25bc
00000240: feb1 43bd dd1e 1f3d 363d 093d abdf c8ba
00000250: a78e 293c edb8 163d 2a28 473c 645a d03c
00000260: 5fd6 163d 5f75 a13d bedf 7f3c de17 2bbd
00000270: 37af e03c a813 0f3d dd90 c5bc f06b 21bb
00000280: 9c19 733c fa9a 103b 626d 4a3c c48d 43bd
00000290: b1ae 82bd 8995 73bc cdca a9bc 423d fb3c
000002a0: fef1 8f3c e86f d63c 7746 b73a f06a 08bd
000002b0: 10d3 7c3d 83fb 9e3b 1752 cc3c bebb d83b
000002c0: 33ee 873d c950 ba3d d812 453d d691 d53c
000002d0: 7671 d73c e8e9 1ebd 4e49 073d 2568 10bb
000002e0: 28f5 013d 7ba4 3b3d e367 3abc 186e 83bd
000002f0: 7b53 343d 80e5 fabc 7eed 0dbd 0c86 5d3d
00000300: d91e 423d 43a4 d13b bc41 a03c 2b6b 2c3d
00000310: 2575 0fbc cff6 583d 6de0 4cbc be5d 34bd
00000320: a904 803d 30fd 97ba 34be 2ebd 25b2 31bd
00000330: 2cd7 5abc 14e0 84bd 0d66 773b 8bde 673d
00000340: e3fd 00bd d051 013d f5b2 89bd dbf2 763d
00000350: f7d4 413c 0690 833d 4603 d7bc e151 713d
00000360: 61dc 9f3d e8a4 353c 7553 843d e4cb 3dbd
00000370: b276 c73c 1adf 1d3c 64ea 2dbd e6d2 013d
00000380: 2256 043d fce6 7b3c 3f11 50bc ba8b 12bd
00000390: d7e9 ccbc 383d 1e3c 200a f73c 3b59 9bbd
000003a0: dd29 bf3a 37e9 2f3d 4a05 ac3c ba6d d93c
000003b0: 241c 803d 0caa 07bd 1eb3 f6bc 829c 83ba
000003c0: aca0 17bd 0068 39bd 7a45 033d 959e f7bc
000003d0: 2b19 25be 48f5 e8bd 86a0 edbd 2a91 37bc
000003e0: 2d28 f23a 9dee 25bd ec16 23bd cb73 42bc
000003f0: f822 5bbd 96e1 36bd d14c 5fbd fe43 a5bd

backbone.10.bias f4 [128]
4.1970132e-05 -1.1109062e-05 -2.3091761e-05 7.663187e-05 -3.335105e-05 3.5798832e-05 -9.0646545e-06 -2.1990722e-05
9.014121e-06 5.155868e-05 2.1928105e-05 -1.608018e-05 -5.7236164e-05 2.8342267e-05 4.4468637e-05 3.5314097e-06
4.3938555e-05 2.308314e-05 -5.2378397e-05 -1.8868599e-05 2.8363329e-05 -0.00010117053 -9.160209e-05 -3.7462858e-05
3.9844384e-05 -6.697412e-05 -2.0166603e-05 4.876672e-06 1.4716267e-05 -6.424007e-05 -0.00010178064 2.7050031e-05
1.5179843e-06 2.7282978e-05 9.6902346e-05 -2.257908e-05 1.1124018e-08 -1.7812241e-05 0.00019514703 -1.6306149e-05
-1.53022e-05 4.7189747e-05 -3.602258e-06 -7.3444426e-05 -9.183797e-05 -2.9012199e-05 -5.087766e-05 1.4934644e-05
-2.0180703e-05 8.19115e-06 1.6685888e-05 -3.3919816e-05 8.009439e-05 9.365704e-06 3.1728054e-05 -8.5594926e-05
-1.3129547e-05 -6.177823e-05 1.3897157e-05 -7.316458e-06 5.8684414e-05 -4.7886642e-05 0.00018060855 -2.7099653e-05
-1.6099033e-05 -6.9773756e-05 -3.720612e-05 -1.2656907e-05 -1.3449928e-05 -1.8636687e-05 -1.914589e-05 -2.8012068e-05
-3.848642e-05 -3.6953523e-05 0.00013138234 2.0957725e-05 -7.238154e-06 -4.25067e-05 -3.684163e-05 -5.2392456e-06
-9.3600065e-06 2.3883857e-05 -1.651928e-05 -5.5091496e-06 3.6558224e-05 9.0024505e-06 -1.3114578e-05 3.7840124e-05
-7.298213e-06 -2.6440171e-05 3.1772452e-06 -1.3446751e-06 9.297977e-07 9.8819355e-06 -2.4612591e-05 -1.718781e-06
-1.6528204e-05 -0.00016187794 -8.166804e-06 -1.6487546e-05 -2.5547142e-05 -6.808212e-05 8.66793e-06 -8.0638245e-05
2.501044e-05 1.2825813e-05 2.0438918e-05 7.4213294e-06 2.4483383e-05 5.7264042e-05 1.4955213e-05 3.6548365e-05
-1.8505907e-05 2.8237751e-05 0.00016986937 4.491103e-06 -9.240414e-06 -3.453199e-05 -5.3155225e-05 -3.475984e-05
2.1014299e-05 3.3167908e-05 -6.605479e-05 3.4115463e-05 2.8713082e-05 3.3138334e-05 -2.8811144e-06 1.3040008e-06
00000000: 1609 3038 0f61 3ab7 2eb5 c1b7 6cb5 a038
00000010: 6be2 0bb8 b426 1638 6514 18b7 b778 b8b7
00000020: 5b3b 1737 b640 5838 3ff2 b737 ece3 86b7
00000030: dd10 70b8 8ec0 ed37 d683 3a38 28fd 6c36
00000040: aa4a 3838 aaa2 c137 e0b0 5bb8 0248 9eb7
00000050: c9ed ed37 842b d4b8 7f1a c0b8 7021 1db8
00000060: 951e 2738 7574 8cb8 732b a9b7 4ba2 a336
00000070: e3e5 7637 a0b8 86b8 1173 d5b8 80e9 e237
00000080: 8bbd cb35 c0dd e437 0d38 cb38 3568 bdb7
00000090: f31b 3f32 7f6b 95b7 62a0 4c39 30c9 88b7
000000a0: 395d 80b7 9bed 4538 52be 71b6 2d06 9ab8
000000b0: 2299 c0b8 395f f3b7 7965 55b8 cf8f 7a37
000000c0: bb49 a9b7 b96c 0937 acf8 8b37 2045 0eb8
000000d0: 59f8 a738 6421 1d37 bd13 0538 6d81 b3b8
000000e0: fa46 5cb7 ef8e 81b8 d627 6937 e57f f5b6
000000f0: e923 7638 e4d9 48b8 bd61 3d39 1054 e3b7
00000100: 690c 87b7 8053 92b8 c40d 1cb8 0059 54b7
00000110: 00a7 61b7 fb55 9cb7 7c9b a0b7 75fb eab7
00000120: 7b6c 21b8 8bfe 1ab8 aec3 0939 5fce af37
00000130: 45df f2b6 3949 32b8 6686 1ab8 c7cc afb6
00000140: ec08 1db7 315a c837 e292 8ab7 3cdb b8b6
00000150: 1856 1938 3b09 1737 af06 5cb7 86b6 1e38
00000160: 2ce3 f4b6 d6cb ddb7 a838 5536 af7a b4b5
00000170: 3697 7935 97ca 2537 2377 ceb7 deb0 e6b5
00000180: 0ca6 8ab7 c7bd 29b9 2804 09b7 bc4e 8ab7
00000190: 124e d6b7 4fc7 8eb8 7a6c 1137 541c a9b8
000001a0: 83cd d137 732e 5737 3e74 ab37 bc04 f936
000001b0: aa61 cd37 cc2e 7038 27e8 7a37 824b 1938
000001c0: 223d 9bb7 1ce0 ec37 f61e 3239 48b2 9636
000001d0: 4707 1bb7 71d6 10b8 fdf2 5eb8 18cb 11b8
000001e0: dd47 b037 c51d 0b38 e586 8ab8 3317 0f38
000001f0: e0dc f037 04fe 0a38 2b59 41b6 2005 af35

backbone.11.weight f4 [128]
1.1230385 1.0978558 1.0957409 1.1319199 1.1245996 1.1063094 1.0337561 1.0890515
1.1550617 1.1348987 1.0756359 1.1470633 1.1589063 1.1574681 1.1233017 1.1389697
1.1323376 1.1535904 1.1293992 1.0671009 1.2120134 1.0848695 1.163453 1.1163887
1.1004268 1.0775038 1.0901258 1.0694371 1.0949336 1.0943387 1.0723615 1.1003572
1.122917 1.1186008 1.1016676 1.1133068 1.0804839 1.0394028 1.0643299 1.1038817
1.0937409 1.1151506 1.0864753 1.1133407 1.1225868 1.1552187 1.0802151 1.100721
1.0490782 1.0488459 1.1027676 1.1626027 1.0972878 1.1305208 1.1413435 1.1381932
1.1420808 1.1660457 1.0925841 1.1138784 1.1222379 1.1278709 1.1314566 1.0737873
1.06896 1.0989375 1.2022395 1.1292319 1.0779573 1.0255157 1.1635112 1.1100897
1.1648033 1.0847825 1.1860404 1.1013739 1.1095145 1.1095502 1.0966952 1.1437346
1.1094974 1.0580424 1.0726125 1.110139 1.0805473 1.1061294 1.117538 1.0663366
1.1853747 1.1181227 1.1593165 1.1079953 1.1335785 1.02919 1.0948764 1.1160909
1.0649785 1.0535463 1.1181703 1.1109192 1.0916358 1.1478728 1.1534313 1.0751047
1.0935187 1.0934583 1.0901679 1.1579877 1.149906 1.1010115 1.1410861 1.0976264
1.0842291 1.1514186 1.0789839 1.1582822 1.0376916 1.0964289 1.0924658 1.1350725
1.0673273 1.0961798 1.1233008 1.1178312 1.0876428 1.0891232 1.12507 1.0672046
00000000: babf 8f3f 8a86 8c3f 3d41 8c3f c0e2 903f
00000010: e1f2 8f3f 8c9b 8d3f 1f52 843f 0a66 8b3f
00000020: 10d9 933f 5c44 913f 70ae 893f f8d2 923f
00000030: 0b57 943f ea27 943f 5ac8 8f3f c2c9 913f
00000040: 70f0 903f daa8 933f 2790 903f c396 883f
00000050: 4123 9b3f 01dd 8a3f 07ec 943f d3e5 8e3f
00000060: c9da 8c3f a5eb 893f 3e89 8b3f 51e3 883f
00000070: c926 8c3f 4a13 8c3f 2443 893f 81d8 8c3f
00000080: bfbb 8f3f 502e 8f3f 7203 8d3f d680 8e3f
00000090: 4c4d 8a3f 270b 853f f63b 883f ff4b 8d3f
000000a0: b4ff 8b3f 41bd 8e3f 9f11 8b3f f381 8e3f
000000b0: edb0 8f3f 35de 933f 7d44 8a3f 6de4 8c3f
000000c0: 3248 863f 9540 863f 7d27 8d3f 2ad0 943f
000000d0: ed73 8c3f e8b4 903f 8b17 923f 51b0 913f
000000e0: b42f 923f fc40 953f ccd9 8b3f 9193 8e3f
000000f0: 7ea5 8f3f 135e 903f 92d3 903f dd71 893f
00000100: aed3 883f fca9 8c3f fce2 993f ac8a 903f
00000110: 81fa 893f 1944 833f efed 943f 6b17 8e3f
00000120: 4618 953f 27da 8a3f 2cd0 973f d2f9 8c3f
00000130: 9204 8e3f be05 8e3f 8260 8c3f e565 923f
00000140: 0304 8e3f ef6d 873f 5e4b 893f 0919 8e3f
00000150: 604f 8a3f a695 8d3f 7c0b 8f3f b87d 883f
00000160: 5cba 973f a51e 8f3f 7c64 943f cad2 8d3f
00000170: 1a19 913f 7fbc 833f e924 8c3f 11dc 8e3f
00000180: 3751 883f 9bda 863f 3420 8f3f 9a32 8e3f
00000190: b9ba 8b3f 7fed 923f a3a3 933f 089d 893f
000001a0: 6cf8 8b3f 71f6 8b3f 9f8a 8b3f f138 943f
000001b0: 1f30 933f f2ed 8c3f 1c0f 923f 067f 8c3f
000001c0: 05c8 8a3f af61 933f 251c 8a3f 9742 943f
000001d0: 14d3 843f c857 8c3f ebd5 8b3f 0e4a 913f
000001e0: 2e9e 883f 9f4f 8c3f 52c8 8f3f 1815 8f3f
000001f0: e137 8b3f 6468 8b3f 4b02 903f 299a 883f

backbone.11.bias f4 [128]
-0.009968173 -0.0145469485 -0.048143357 0.034650482 0.015799303 0.038223278 -0.03934583 0.011347072
-0.008674451 0.06031834 0.030306749 0.03561327 -0.013031462 0.05517495 -0.00064208306 0.09132099
-0.009997145 -0.007978405 0.027156254 0.043198593 0.07972382 -0.049003135 0.12938844 0.024227373
-0.03809239 -0.027827911 -0.028787784 0.021188306 0.038210146 0.019370873 -0.003001496 0.03368241
0.007867189 -0.020659432 -0.02115096 0.05496395 -0.0060153916 -0.04877929 -0.006873305 -0.024634749
0.009806108 -0.030581798 0.0025540877 -0.019698456 0.07920637 -0.014767343 -0.02236457 0.03320738
-0.12215968 -0.07397682 0.04266188 0.017020533 -0.00032868196 -0.01296833 0.021372154 0.0022837317
0.012164621 0.07865215 0.0015989916 0.035392895 0.066563815 0.08775807 -0.010637138 -0.037414934
0.05680205 0.0533133 0.012291134 -0.022636672 0.029643577 -0.021603785 0.05114728 0.024683634
0.017439166 0.036406286 0.076935865 -0.0018373253 0.051830076 0.06653534 -0.028949482 0.014848134
0.025690783 -0.029769238 0.016440203 0.01288889 0.007727883 -0.007936947 -0.017081393 0.0049162637
0.022675876 -0.012330409 -0.009008895 0.0045541283 0.052984636 -0.041972123 0.0286897 0.003732429
0.024251858 -0.054192506 0.04421225 0.008236523 0.0725242 0.06890008 0.010507172 -0.014678225
-0.004935097 -0.010234822 0.06818034 0.020951679 0.019122086 -0.029722776 0.044785094 -0.0011053004
-0.006816761 -0.0060755657 -0.014252301 0.006285014 0.01173102 -0.024011716 0.017960953 0.046756495
-0.008648521 -0.005255878 0.009145306 0.05364496 -0.027399424 0.03361817 0.05063051 0.010135667
00000000: 8c51 23bc 5356 6ebc f831 45bd aaed 0d3d
00000010: 8a6d 813c 0390 1c3d 1829 21bd 12e9 393c
00000020: 491f 0ebc 5d10 773d dc45 f83c 38df 113d
00000030: ea81 55bc 21ff 613d 7751 28ba 8006 bb3d
00000040: 11cb 23bc dbb7 02bc cb76 de3c 02f1 303d
00000050: 3e46 a33d 83b7 48bd 677e 043e 7c78 c63c
00000060: c406 1cbd 5cf7 e3bc 5cd4 ebbc 1993 ad3c
00000070: 3e82 1c3d aaaf 9e3c bfb4 44bb 91f6 093d
00000080: 62e5 003c f83d a9bc c744 adbc e121 613d
00000090: c31c c5bb cbcc 47bd 7639 e1bb d0ce c9bc
000000a0: cca9 203c ae86 fabc 7b62 273b a85e a1bc
000000b0: f336 a23d baf2 71bc e735 b7bc 7604 083d
000000c0: db2e fabd 2981 97bd 39be 2e3d a56e 8b3c
000000d0: f252 acb9 1e79 54bc a814 af3c a9aa 153b
000000e0: 1e4e 473c 6114 a13d 4195 d13a 24f8 103d
000000f0: 9c52 883d 81ba b33d 6447 2ebc 6740 19bd
00000100: 44a9 683d 0c5f 5a3d c160 493c 8b70 b9bc
00000110: 16d7 f23c 6cfa b0bc cf7f 513d 5535 ca3c
00000120: 95dc 8e3c c21e 153d 8d90 9d3d 68d2 f0ba
00000130: c64b 543d ae43 883d 7727 edbc 9645 733c
00000140: 7a75 d23c 9ede f3bc 9bad 863c ec2b 533c
00000150: 2e3a fd3b f809 02bc 47ee 8bbc 9c18 a13b
00000160: c2c2 b93c 7c05 4abc 0b9a 13bc cc3a 953b
00000170: 6b06 593d f6ea 2bbd a906 eb3c c49b 743b
00000180: d5ab c63c f6f8 5dbd e717 353d 7bf2 063c
00000190: 9187 943d 7c1b 8d3d 4626 2c3c f07c 70bc
000001a0: 98b6 a1bb f4af 27bc 22a2 8b3d dba2 ab3c
000001b0: eca5 9c3c 2e7d f3bc 9370 373d badf 90ba
000001c0: 235f dfbb 8a15 c7bb 7c82 69bc 85f2 cd3b
000001d0: 7733 403c 38b4 c4bc d922 933c bd83 3f3d
000001e0: 87b2 0dbc 8039 acbb 32d6 153c d1ba 5b3d
000001f0: c274 e0bc 35b3 093d f061 4f3d 1210 263c

backbone.11.running_mean f4 [128]
-0.31755394 1.9423368 -2.1471555 -3.408799 -1.5342451 1.723193 2.3412063 -0.94020134
-1.5935438 -0.592006 -0.43235484 1.3043597 -1.0078617 -2.3839974 0.4695601 1.1764356
0.8651346 -1.5488105 2.148767 2.56055 1.0464963 1.936159 0.6726372 2.6505797
0.7850582 3.4148374 1.2974163 2.8976173 0.10537982 -0.05986074 1.7638842 -1.3780768
-0.37306497 2.1577883 0.19401045 -0.16524315 2.0829039 1.1670603 -1.2117383 1.20887
-2.0064778 -0.5677137 4.1462755 -1.8420286 1.9745953 -1.2836018 2.569029 -1.0169705
-0.29702637 -0.64611363 0.8601086 -0.007854124 0.81092507 -2.0772028 -1.9191377 -0.7238071
-0.6754014 -0.7306142 -1.7021053 -1.5244658 -0.5873649 -0.47795668 -0.9146798 1.5825038
1.3337756 1.049522 -1.5473771 -1.7069334 -0.50940526 -1.1920109 -2.2594516 0.4580568
-2.262578 0.17464837 -1.743514 0.10531149 1.2769177 0.26285002 -0.016632814 -0.5051929
1.527038 0.61749 -1.4754266 2.6888492 0.022988068 1.5145686 -0.88101643 -1.000808
-1.5787431 -0.07790924 -0.9741999 0.7371813 -0.9852309 0.34359384 2.0904117 -0.94737613
-1.170346 -1.6369512 -0.4931988 0.7294441 -1.2129682 -0.22094016 -1.2417202 0.7625348
1.2558268 0.22625189 0.53403085 -1.219019 0.20716287 2.479048 -1.069941 -1.7939023
1.0892705 -0.8740095 -0.5220768 -1.632815 -1.5442078 -0.8287305 -1.6292728 -0.5800573
-1.983179 -0.41995728 -1.1698822 -0.428591 0.01641277 -0.09960857 1.9826782 2.5759397
00000000: 6e96 a2be 7e9e f83f ff6a 09c0 c329 5ac0
00000010: 2562 c4bf 9791 dc3f 53d6 1540 09b1 70bf
00000020: 3ef9 cbbf b58d 17bf 9d5d ddbe 42f5 a63f
00000030: 9d01 81bf 6a93 18c0 2e6a f03e 7195 963f
00000040: 7679 5d3f 6c3f c6bf 6685 0940 0de0 2340
00000050: 97f3 853f 0fd4 f73f f431 2c3f 19a3 2940
00000060: 93f9 483f b28c 5a40 bd11 a63f 9072 3940
00000070: 60d1 d73d 8930 75bd f5c6 e13f d264 b0bf
00000080: 5f02 bfbe 3419 0a40 adaa 463e 8035 29be
00000090: 4c4e 0540 3b62 953f 3e1a 9bbf 41bc 9a3f
000000a0: 226a 00c0 af55 11bf 4aae 8440 98c7 ebbf
000000b0: 8abf fc3f 104d a4bf f96a 2440 172c 82bf
000000c0: d713 98be b467 25bf 1430 5c3f 95ae 00bc
000000d0: c998 4f3f e4f0 04c0 4ea6 f5bf 6c4b 39bf
000000e0: 1be7 2cbf 8809 3bbf 96de d9bf b221 c3bf
000000f0: 8c5d 16bf bdb6 f4be 7528 6abf 7c8f ca3f
00000100: 29b9 aa3f bd56 863f 7410 c6bf cb7c dabf
00000110: 6268 02bf d093 98bf db9a 10c0 6c86 ea3e
00000120: 14ce 10c0 06d7 323e 772b dfbf 8dad d73d
00000130: 0a72 a33f 4794 863e 8a41 88bc 5254 01bf
00000140: fb75 c33f d313 1e3f c7da bcbf 1b16 2c40
00000150: 7951 bc3c 62dd c13f 4b8a 61bf 7a1a 80bf
00000160: 4114 cabf e18e 9fbd 2a65 79bf eab7 3c3f
00000170: 1838 7cbf 88eb af3e 4ec9 0540 3e87 72bf
00000180: e6cd 95bf 9e87 d1bf 8e84 fcbe d9bc 3a3f
00000190: 8b42 9bbf 233e 62be b0f0 9ebf 7b35 433f
000001a0: efbe a03f 93ae 673e 3fb6 083f d108 9cbf
000001b0: 8122 543e b9a8 1e40 d4f3 88bf 979e e5bf
000001c0: 376d 8b3f 16bf 5fbf d3a6 05bf 1500 d1bf
000001d0: 9aa8 c5bf af27 54bf 038c d0bf a37e 14bf
000001e0: cfd8 fdbf a404 d7be b3be 95bf 4870 dbbe
000001f0: 1374 863c 94ff cbbd 66c8 fd3f 32dc 2440

backbone.11.running_var f4 [128]
4.5057516 2.2001894 1.9236811 2.5728734 2.6350274 2.4311385 2.4455137 1.6906234
2.5269167 2.0980632 1.7550327 2.151609 2.4635623 1.7331011 3.1230109 3.926136
3.4369113 2.5510416 3.24022 1.9100844 3.485459 4.0472393 2.841038 3.3408535
2.9047754 2.568472 1.8612417 3.566745 3.21246 2.119993 1.3530107 4.29984
1.8512788 3.7684731 1.9759145 2.1118815 2.4386754 2.6154294 2.423336 2.41247
1.8942233 2.7115617 2.8228228 1.9471906 1.5693568 2.30239 3.080808 3.774817
2.964566 4.3783855 2.6680708 2.231314 4.1066403 1.8912028 2.1022928 3.48231
2.352777 2.5491648 2.5719159 1.5060948 1.5625496 3.028203 2.2718482 2.785297
3.0493524 2.8124197 2.3103633 2.0397785 3.9785078 1.9824654 2.0549707 3.526697
2.2396262 1.3655052 1.8834293 2.0273035 3.451458 3.0711524 1.9806068 1.5574917
2.2999308 2.2442584 3.3766484 2.7713609 2.140317 1.8327575 2.5852969 3.243737
3.047369 3.160309 2.7155626 2.1853204 2.592092 2.043317 2.4210947 2.0313482
1.9680072 2.3941393 3.28494 2.4163308 3.0559108 2.9088824 3.3941214 2.1290817
2.5487409 2.1302695 1.8907676 2.3471289 2.4174807 4.914515 2.1301007 2.766338
2.4212108 3.034268 1.9828806 2.3369362 2.5906026 2.503897 3.2608275 2.3587177
5.6371284 2.142131 1.8202451 3.2319858 2.3417203 2.539904 2.2983372 3.1894457
00000000: 1e2f 9040 e7cf 0c40 2f3b f63f f5a9 2440
00000010: 4aa4 2840 c697 1b40 4c83 1c40 5966 d83f
00000020: 01b9 2140 ab46 0640 e9a4 e03f f6b3 0940
00000030: 01ab 1d40 42d6 dd3f 69df 4740 d045 7b40
00000040: 5bf6 5b40 4444 2340 c45f 4f40 a57d f43f
00000050: c311 5f40 fc82 8140 91d3 3540 8bd0 5540
00000060: d7e7 3940 d861 2440 2b3d ee3f 8d45 6440
00000070: f298 4d40 f7ad 0740 742f ad3f 4a98 8940
00000080: b4f6 ec3f aa2e 7140 c4ea fc3f 1129 0740
00000090: 4213 1c40 3263 2740 f017 1b40 e965 1a40
000000a0: e975 f23f 3a8a 2d40 21a9 3440 8b3d f93f
000000b0: afe0 c83f 5c5a 1340 f52b 4540 9a96 7140
000000c0: 73bb 3d40 bc1b 8c40 acc1 2a40 d9cd 0e40
000000d0: 9969 8340 ef12 f23f f78b 0640 2bde 5e40
000000e0: e693 1640 8425 2340 459a 2440 b7c7 c03f
000000f0: a001 c83f 14ce 4140 f665 1140 4e42 3240
00000100: 9728 4340 affe 3340 fedc 1340 bb8b 0240
00000110: df9f 7e40 6dc1 fd3f a484 0340 67b5 6140
00000120: 0956 0f40 e0c8 ae3f 3614 f13f 57bf 0140
00000130: b0e4 5c40 c38d 4440 8684 fd3f e35b c73f
00000140: 1132 1340 eea1 0f40 021b 5840 fa5d 3140
00000150: f4fa 0840 cc97 ea3f 8175 2540 6399 4f40
00000160: 1808 4340 8142 4a40 c7cb 2d40 4adc 0b40
00000170: d6e4 2540 b5c5 0240 37f3 1a40 9c01 0240
00000180: a9e7 fb3f 9439 1940 753c 5240 2aa5 1a40
00000190: 0b94 4340 212b 3a40 4939 5940 e042 0840
000001a0: 921e 2340 5656 0840 ac04 f23f 5c37 1640
000001b0: 01b8 1a40 b543 9d40 9253 0840 af0b 3140
000001c0: 1ef5 1a40 7231 4240 08cf fd3f 5d90 1540
000001d0: 6fcc 2540 d93f 2040 66b1 5040 3bf5 1640
000001e0: 5b63 b440 ad18 0940 cbfd e83f dbd8 4e40
000001f0: bfde 1540 ca8d 2240 f517 1340 e11f 4c40
